…
              metrics=['accuracy'])

model.fit(train_images, train_labels, epochs=1)
test_loss, test_acc = model.evaluate(test_images, test_labels)
print(test_acc)

# Predict the label of one image
test_image = np.expand_dims(test_images[300], axis=0)
plt.imshow(test_image.reshape(28, 28))
plt.show()
result = model.predict(test_image)
print("result:", result)
print("result.argmax():", result.argmax())
```

**Model Summary:**
```
Model: "sequential"
Layer (type)                 Output Shape              Param #   
=================================================================
conv2d (Conv2D)              (None, 26, 26, 32)        320       
max_pooling2d (MaxPooling2D) (None, 13, 13, 32)        0         
conv2d_1 (Conv2D)            (None, 11, 11, 64)        18496     
max_pooling2d_1 (MaxPooling2D) (None, 5, 5, 64)         0         
conv2d_2 (Conv2D)            (None, 3, 3, 64)          36928     
flatten (Flatten)             (None, 576)               0         
dense (Dense)                 (None, 64)                36928     
dense_1 (Dense)               (None, 10)                650       
=================================================================
Total params: 93,322
Trainable params: 93,322
Non-trainable params: 0
```

**Expected Accuracy:** ~98.7%

### Code Example 4: Displaying MNIST Image

**Context:** Visualizing MNIST dataset images

**Language:** Python

```python
import tensorflow as tf
import matplotlib.pyplot as plt

mnist = tf.keras.datasets.mnist
(X_train, y_train), (X_test, y_test) = mnist.load_data()
…
