…
to define a -based model called , which contains two pairs of
Keras model
and layers, followed by the layer, and
Conv2D MaxPooling2D Flatten
then two consecutive layers.
Dense
Next, the model is compiled, trained, and evaluated via the ,
compile()
, and methods, respectively. The final portion of Listing
fit() evaluate()
4.4 successfully predicts the image whose label is 4, which is then displayed

124 • ArtificiAl intelligence, MAchine leArning, Deep leArning
via . Launch the code in Listing 4.4 and you will see the fol-
Matplotlib
lowing output on the command line:
Model: "sequential"
Layer (type) Output Shape Param #
conv2d (Conv2D) (None, 26, 26, 32) 320
max_pooling2d
(None, 13, 13, 32) 0
(MaxPooling2D)
conv2d_1 (Conv2D) (None, 11, 11, 64) 18496
max_pooling2d_1
(None, 5, 5, 64) 0
(MaxPooling2
conv2d_2 (Conv2D) (None, 3, 3, 64) 36928
flatten (Flatten) (None, 576) 0
dense (Dense) (None, 64) 36928
dense_1 (Dense) (None, 10) 650
Total params: 93,322
Trainable params: 93,322
Non-trainable params: 0
60000/60000 [==============================] - 54s
907us/sample - loss: 0.1452 - accuracy: 0.9563
10000/10000 [==============================] - 3s
297us/sample - loss: 0.0408 - accuracy: 0.9868
0.9868
Using TensorFlow backend.
result: [[6.2746993e-05 1.7837329e-03 3.8957372e-04
4.6143982e-06 9.9723744e-01
1.5522403e-06 1.9182076e-04 3.0044283e-04
…
the variable as a reference to the MNIST dataset. The next portion
mnist
of Listing A.4 contains some typical code that populates the training dataset
and the test dataset and converts the labels to numeric values via the tech-
nique known as one-hot encoding.
Next, several hyperparameters are initialized, and a -based
Keras
model is defined that specifies three layers and the activation
Dense relu
function. This model is compiled and trained, and the accuracy on the test
dataset is computed and then displayed. Launch the code in Listing A.4 and
you will see the following output:
Model: “sequential”
Output Shape
Layer (type) Param #
Shape
dense (Dense) (None, 256) 200960
activation
(None, 256) 0
(Activation)

200 • ArtificiAl intelligence, MAchine leArning, Deep leArning
dropout (Dropout) (None, 256) 0
dense_1 (Dense) (None, 256) 65792
activation_1
(None, 256) 0
(Activation)
dropout_1 (Dropout) (None, 256) 0
dense_2 (Dense) (None, 10) 2570
activation_2
(None, 10) 0
(Activation)
Total params: 269,322
Trainable params: 269,322
Non-trainable params: 0
Train on 60000 samples
Epoch 1/10
60000/60000 [==============================] - 4s
74us/sample - loss: 0.4281 - accuracy: 0.8683
Epoch 2/10
60000/60000 [==============================] - 4s
66us/sample - loss: 0.1967 - accuracy: 0.9417
Epoch 3/10
60000/60000 [==============================] - 4s
63us/sample - loss: 0.1507 - accuracy: 0.9547
…
